backend/System/ANNmodel.tflite (tflite, 17092 bytes, 7 tensors)

sequential/dense_1/MatMul;sequential/dense_1/Relu;sequential/dense_1/BiasAdd f4 [32]
000000 3d 0d 0b bf 9f 84 4d 3f d4 79 81 3e fd d6 26 3f
       -0.54317075 0.8028049 0.2528826 0.65171796
000010 06 49 f5 3e a2 9d 5e 3f d3 82 7b 3f cb a2 8d 3f
       0.47907275 0.8695928 0.98246497 1.1065305
000020 c3 6e 12 3f 0f 89 9e 3f 3d b7 8e 3f f3 8a 09 3e
       0.5720026 1.2385577 1.114967 0.13431911
000030 62 c6 52 bf 29 c9 46 bf 96 dc cd be e8 f6 30 bf
       -0.8233396 -0.77650696 -0.40207356 -0.6912675
000040 80 6b 14 3e 01 e6 49 3f 63 a4 51 3e 43 a4 92 3f
       0.14494133 0.78866583 0.20472865 1.1456379
000050 ac 20 9a 3f e8 ed f1 3e 2e 30 e1 bd df 86 22 3e
       1.2041221 0.4725182 -0.10995518 0.15871762
000060 f7 b1 77 bf b2 05 3c 3e 69 5c 4e 3f dd dc 06 40
       -0.9675593 0.18361548 0.80609757 2.1072304
000070 5e ce be be 58 ff eb bd 0e a3 c4 3f 5a 0c d7 3f
       -0.3726682 -0.11523312 1.536226 1.6800644

sequential/batch_normalization/batchnorm/mul_1;sequential/batch_normalization/batchnorm/add_1;sequential/dense_1/MatMul;sequential/dense_1/Relu;sequential/dense_1/BiasAdd f4 [32, 64]
000000 47 99 01 40 67 d0 b6 be cc fc 8c 3d 36 8c 58 bf
       2.0249803 -0.35705873 0.06884155 -0.84588945
000010 23 72 e8 bf 56 7c 00 bf 5f 4c 94 3f 98 d3 36 3e
       -1.8159832 -0.5018972 1.1585807 0.17854154
000020 f2 f0 63 bf 5d 90 7d bf ac 53 78 3f 66 7c 08 be
       -0.8903953 -0.99048406 0.97002673 -0.13328704
000030 3e d4 aa bf bb 7b 13 bf ab b0 59 bf 74 ef 36 3f
       -1.3346021 -0.5761067 -0.850352 0.71459126
000040 10 4b 1d bf 15 38 04 bf 6e a2 bf 3f 43 c9 bb 3f
       -0.6144266 -0.51648074 1.4971445 1.4670795
000050 63 4d 84 bf 1f f4 ca 3d b4 c0 95 bf a7 4b 76 3f
       -1.0336117 0.09909844 -1.1699433 0.96209186
000060 22 97 9a 3f c7 77 3b 3f 56 b9 0a bf 02 42 d7 3f
       1.2077372 0.7322964 -0.5418905 1.6817019
000070 63 d2 6b 3f 2e 02 4b be 67 2c 91 3f 50 f7 07 c0
       0.921179 -0.1982505 1.1341676 -2.1244698
000080 94 e4 4c bf 91 5a d5 bf aa cd a4 3f 9a 97 fd 3d
       -0.8003628 -1.6668264 1.2875264 0.12382431
000090 d0 c7 c5 bf 57 29 20 3f 19 b6 81 3f be 2d 73 bf
       -1.5451603 0.6256308 1.0133697 -0.9499167
0000a0 27 dc f6 3f 08 d2 ee 3f 1a c4 c4 3f 8e 75 06 be
       1.9285935 1.8657846 1.5372345 -0.13130781
0000b0 d6 5a f0 3b 87 1a 89 3f dd 50 c9 bf 36 fd 27 bf
       0.0073350472 1.071122 -1.5727803 -0.65620744
0000c0 59 0b 80 3f 75 05 d2 3f 45 83 37 be d8 bb aa 3f
       1.0003463 1.6407915 -0.17921169 1.3338575
0000d0 32 56 cb 3e 11 a5 d7 3f aa b0 9f bf 73 47 19 bf
       0.397142 1.6847249 -1.2475789 -0.5987465
0000e0 3d 60 7a be ac be a7 bd 63 c8 6a 3f 2e ea 4e 3f
       -0.24450774 -0.08190665 0.91712016 0.8082608
0000f0 1d cd 85 bd b6 37 31 bf c4 f4 ff 3e cd 7f 3b 3f
       -0.06533263 -0.69225633 0.4999143 0.73241884
000100 7e 5f 94 3e fc 5d 8c bf d4 37 3a bf cc db 41 bf
       0.28979105 -1.0966182 -0.72741437 -0.7572601
000110 ff 05 d3 bf 9a f1 e0 3d 92 40 95 3f e0 a8 83 3f
       -1.6486205 0.10983582 1.166033 1.0285912
000120 97 2b 15 3f 67 89 ad be 75 bc a7 bf 4b 89 8c 3e
       0.5826964 -0.33893892 -1.3104388 0.27448496
000130 50 fc 26 bf 7b f1 f5 be 99 21 72 3f 22 8d 84 3f
       -0.6522875 -0.48035797 0.94582516 1.035557
000140 36 4f fa be a3 f3 26 3f 69 e1 73 bf 1f ad 95 3f
       -0.48888558 0.6521551 -0.95265824 1.1693457
000150 64 9e 4c bf 9c 78 37 3f 91 a2 06 3f e5 bc 5d 3f
       -0.79929185 0.7166841 0.52591807 0.86616355
000160 0a 72 36 bf 13 08 67 40 a7 41 09 c0 13 c3 bb bf
       -0.7126776 3.6098678 -2.144632 -1.4668907
000170 b7 80 5b bf 14 21 f4 3f b9 6c 51 3f 80 58 c8 bb
       -0.8574328 1.9072595 0.8180652 -0.0061140656
000180 47 12 5e bf 59 5b 8c bf 27 8b 50 bf 51 11 06 40
       -0.8674664 -1.0965377 -0.8146233 2.094807
000190 85 d4 e5 be c2 a3 83 3f ec 12 d8 bf 0e 09 a0 bf
       -0.44888702 1.028435 -1.6880774 -1.2502763
0001a0 1a 0f 89 bf 20 51 3a bf fa 71 92 bf 29 51 e9 3d
       -1.0707734 -0.72780037 -1.1441033 0.11392433
0001b0 9d 3c c2 bf 6d fb 7c 3e 33 e6 32 3f a8 d7 c9 bc
       -1.5174748 0.24705286 0.69882506 -0.024638966
0001c0 c3 2f 49 3f 2b a4 68 bf a6 25 72 bf 19 88 b4 be
       0.78588504 -0.908755 -0.94588697 -0.35260084
0001d0 df e4 ce be 9e d7 6f 40 75 21 8e bf fe 7a 45 bf
       -0.4040899 3.7475352 -1.110396 -0.77140796
0001e0 78 e4 6c 3f c2 92 07 bf 41 15 8b bf d0 a5 2b c0
       0.92536116 -0.5295831 -1.0865861 -2.6819954
0001f0 74 d7 9f 3f 09 9c 2e bf b4 b2 ed 3f 56 2e 69 3e
       1.2487626 -0.6820684 1.8570161 0.22771582
000200 a8 cb 8e 3f b5 b3 35 3f 86 87 b5 3f 9f 54 39 bf
       1.1155901 0.70977336 1.4181983 -0.72394747
000210 f6 cd 1f 3e 6c cd 4e 3f 78 6e 3e be 50 3b 99 bf
       0.15605912 0.807822 -0.18596828 -1.1971226
000220 16 de 98 3f ac bf cd be 33 84 77 3e ee 3a 63 3f
       1.1942775 -0.40185297 0.24171524 0.88761795
000230 4e 7b 9e bf d0 8f b7 3f 39 2c 9c bd 0b b9 8b 3f
       -1.238138 1.4340763 -0.07625622 1.0915846
000240 14 13 3f bf a9 30 80 bf 31 7c 23 3e f3 85 04 bf
       -0.74638486 -1.001485 0.15965344 -0.5176689
000250 66 13 38 be a5 6e 58 3f 7f c2 3a bf 17 b0 a8 bf
       -0.1797615 0.8454383 -0.7295303 -1.3178738
000260 34 73 b6 3f c4 9d 29 3f 2f 63 5c 3f 3c 64 bd 3f
       1.4253907 0.66256356 0.8608884 1.4796214
000270 2a a6 43 bf 04 60 7d bf bc e7 fb bd d2 23 52 3f
       -0.7642542 -0.98974633 -0.12300059 0.8208591
000280 11 9e 15 be 19 0a 55 bf b0 30 ab 3f 00 6d 31 bf
       -0.14611079 -0.8321853 1.3374233 -0.69306946
000290 62 e3 d8 3f 60 3a 8a 3f 3c 21 99 3f 2d 24 16 c0
       1.6944392 1.0799065 1.1963267 -2.345958
0002a0 35 51 e9 be 61 ff 1b bf e1 ff 23 bf 6a 21 19 bf
       -0.4556977 -0.6093655 -0.64062315 -0.5981661
0002b0 b3 76 9c bf 9f 77 16 bf 50 89 00 bf 25 45 38 bd
       -1.2223724 -0.5877628 -0.5020952 -0.044987816
0002c0 0b 00 8e bc e5 c2 87 bd 35 db 35 3f f9 76 4b be
       -0.017334005 -0.0662897 0.7103761 -0.19869603
0002d0 a3 2f bc 3d ce b7 65 c0 77 0f 8b bf 6b d8 bf be
       0.091887735 -3.5893435 -1.0864094 -0.374698
0002e0 c1 2f 9c 3f 64 26 e7 bd 46 5d d5 bc 2d ae 3a 40
       1.2202073 -0.11286619 -0.026045453 2.9168808
0002f0 aa 05 0e c0 3a 72 de be d3 93 81 40 50 e8 2a be
       -2.2190957 -0.43446523 4.049295 -0.16690183
000300 ce eb 78 3e 19 c4 4d bf a3 38 c3 be 6d 54 b9 3f
       0.24308702 -0.80377346 -0.38129148 1.447889
000310 7b 11 8d bf 0a ad c1 3f 55 23 76 3f 66 f3 3c bd
       -1.102096 1.5130932 0.9614766 -0.04613056
000320 1e 26 bc 3f 70 19 3b 3f 8d 80 b0 3f 2c fb 73 be
       1.4699132 0.7308569 1.378923 -0.23826283
000330 75 da 9d bf 85 fc bc 3f 6d d4 3f 3e 10 42 9a bf
       -1.2332293 1.4764563 0.18733378 -1.2051411
000340 c6 c5 47 bf a4 48 e5 be b0 5a b0 bf 3b ff 17 c0
       -0.78036153 -0.44781983 -1.3777676 -2.374953
000350 cb a0 05 bf ea 2e 5e bf e1 fb 8d bf 9f b7 d7 bf
       -0.52198476 -0.86790335 -1.1092492 -1.6852912
000360 e2 dd ca 3e 8f 69 09 c0 af 6b 8d 3f 5a 1f 25 3f
       0.39622408 -2.1470678 1.1048487 0.64500964
000370 9b be d7 be fd 97 b6 bf 66 3c 6e bf 71 f2 80 3f
       -0.42137608 -1.4265133 -0.9306091 1.0073987
000380 83 f2 55 bf c9 d7 30 c0 fe d1 76 3f de 4c 0e 3f
       -0.8357317 -2.7631705 0.9641417 0.5558604
000390 1f 9c 9f 3f c8 4a dd bd 45 18 b9 3f ec 13 48 c0
       1.2469519 -0.10805279 1.4460531 -3.126216
0003a0 c3 ed c4 bf 5c ae 62 bf ec 4e 86 bf 3d f3 08 3f
       -1.5385059 -0.885473 -1.0492835 0.5349615
0003b0 0b 02 f4 bf 0b ba a4 bd 34 b0 b3 3f 82 77 6b bf
       -1.9063123 -0.080432974 1.4038148 -0.9197923
0003c0 07 5a be 3d 72 74 78 3f e2 de 9d be d7 7e 0f 40
       0.09294515 0.9705268 -0.3083411 2.2421167
0003d0 16 0b 79 3f 26 06 11 c0 64 c9 5f bf 0b a2 2b be
       0.9728254 -2.2660003 -0.8741667 -0.16761033
0003e0 c7 d7 92 3f 83 73 39 bf 7b c6 c1 3e 8f e9 ce bd
       1.14721 -0.7244188 0.3784674 -0.101031415
0003f0 51 4b f6 be d3 8e 5d 3f c9 e2 d4 3f f7 84 34 3f
       -0.48104337 0.8654606 1.6631709 0.7051539

sequential/dense_2/MatMul;sequential/dense_2/Relu;sequential/dense_2/BiasAdd f4 [16]
000000 4a 77 10 bf 0f 70 8b bf 00 f5 30 3f e9 00 01 40
       -0.5643202 -1.0893573 0.6912384 2.0156806
000010 1b 3a 36 bf 61 4b 50 3f ae 03 1b 3e b5 5f be be
       -0.7118241 0.8136502 0.15138122 -0.37182394
000020 6c 94 0f 3f e3 87 0a 3f 31 06 16 3e 54 5d c5 bf
       0.5608585 0.54113597 0.146508 -1.5419106
000030 01 39 0b 3e bb 28 2e 3f 60 ce bd 3f 75 ef 41 bf
       0.13595964 0.680309 1.4828606 -0.7575601

sequential/batch_normalization_1/batchnorm/mul_1;sequential/batch_normalization_1/batchnorm/add_1;sequential/dense_2/MatMul;sequential/dense_2/Relu;sequential/dense_2/BiasAdd f4 [16, 32]
000000 07 8a d7 3e c8 68 e6 be 38 ed 32 be 4d 82 b6 3e
       0.42097494 -0.45001817 -0.17473304 0.35646287
000010 ff ff 96 be 01 72 9c be c1 7b 1d 3f c4 ee b4 3d
       -0.29492185 -0.30555728 0.6151696 0.088346034
000020 cb dc e3 3e 9f 8e 02 3e 79 af b7 3d 1d 83 fd 3d
       0.4450439 0.12749718 0.08969016 0.123785235
000030 fd 39 9a 3d 12 ee 85 be f8 fe a6 3e f0 88 b1 3e
       0.07530592 -0.26158196 0.326164 0.34674788
000040 0b 0d fe bd 0a 1b 9c 3e 5e a6 91 bd c5 0e 97 3e
       -0.124048315 0.3048938 -0.0711181 0.29503456
000050 30 ee a6 3e 78 64 a8 be 50 c9 23 bf 54 2d 7f be
       0.32603598 -0.32889152 -0.63979053 -0.24919635
000060 3f c5 08 3d b4 49 0d be 62 73 8e 3e 70 af 13 3e
       0.033391234 -0.13797647 0.27822405 0.14422393
000070 19 80 48 3e e9 f3 47 3e 70 91 71 be b6 81 5a 3e
       0.19580115 0.19526638 -0.23590636 0.21338543
000080 ec 96 c4 3e 7a 63 27 be 5c e1 38 3e b0 1d 37 3e
       0.38396394 -0.16346541 0.18054718 0.17882419
000090 25 cd a4 3c b2 f4 7e be 6e f1 a1 bd 36 bb 86 be
       0.020117352 -0.24898031 -0.07907377 -0.26314706
0000a0 4d 13 9d be 6e a6 9a 3e 44 50 be be 9d 79 87 3e
       -0.30678788 0.302051 -0.37170613 0.2645997
0000b0 97 70 db 3d 5f 1c 81 3e 8f 1d 8f 3e a4 fe b2 be
       0.10714834 0.25216958 0.2795224 -0.349599
0000c0 4b 2a 09 be a0 01 e8 3e 6c 88 40 3e f0 78 b7 3d
       -0.1339504 0.4531374 0.18802041 0.08958614
0000d0 fa 0d bd 3e c3 3e 4d 3d c6 0b 33 be ea 02 90 bd
       0.36924726 0.050108682 -0.1748496 -0.07031806
0000e0 d1 53 ce 3e 26 ef 23 3e 0e 23 7d 3e f0 df c7 3e
       0.40298322 0.16009197 0.24720404 0.39038038
0000f0 2c 60 de 3d af 47 b5 be 25 b7 1d be 93 4b 10 bd
       0.10858187 -0.35406253 -0.15401895 -0.035228323
000100 e3 9d 8c bd 03 df 7e be 6e 93 80 be d0 20 f7 bd
       -0.06866052 -0.2488976 -0.2511248 -0.12066805
000110 1d 01 1f 3d bc 8e 19 3d bc 44 93 be 88 88 b9 be
       0.03881942 0.037489638 -0.28763378 -0.36236978
000120 fd 91 90 be c6 10 87 3e 5c e0 bb 3e 4d 99 fa bd
       -0.2823638 0.26379985 0.3669461 -0.12236271
000130 5c 25 1d bf 5d f3 8e be 88 ed d8 3e 24 4c d9 3d
       -0.6138513 -0.27920046 0.42368722 0.10610226
000140 bb 5b 3d 3e 39 72 1e bb 23 30 96 bd c3 f2 9e be
       0.18492024 -0.0024176969 -0.073334 -0.31044587
000150 8e 0f c4 be 52 74 94 3e bf 7b 24 bd 5a 37 ad 3c
       -0.38293117 0.28994995 -0.040157076 0.021144558
000160 d7 4a 6f 3e a0 a7 c3 3d 70 18 c0 ba 07 5a 53 3e
       0.23368393 0.09553456 -0.001465572 0.20639811
000170 5b 83 74 3e fd 65 e6 bc 41 94 8d be c4 b9 39 3e
       0.23878233 -0.028124804 -0.2765217 0.1813727
000180 fb 71 f4 be c1 f2 ab 3d 12 7f 03 be 33 dd c9 3d
       -0.4774321 0.08395911 -0.12841442 0.098566435
000190 10 b6 88 be 6f 36 92 3d e1 e6 22 be 09 f8 23 be
       -0.26701403 0.07139289 -0.15908386 -0.16012587
0001a0 03 db 59 3c ca 30 4b 3e a4 98 c9 be 81 bd db be
       0.013296845 0.1984283 -0.39374268 -0.42918018
0001b0 36 82 06 bf a3 17 31 3e 08 cf 91 be 59 21 e9 3e
       -0.52542436 0.17294173 -0.28478265 0.45533255
0001c0 60 76 ad 3e de 4f 87 3e 81 5d 2b 3e ab c5 3a bd
       0.33879375 0.2642812 0.16734888 -0.045598667
0001d0 c8 1d d9 be 10 c6 26 3d fc 94 be be f6 41 02 bf
       -0.42405534 0.04071623 -0.3722304 -0.508819
0001e0 62 4e ab be 2a 0e 3f 3e a1 13 9b 3e 89 e1 80 bd
       -0.3345824 0.18657747 0.30288413 -0.062930174
0001f0 57 fb 3d be b1 78 07 bf cb 7a a5 3d f2 05 c6 be
       -0.1855291 -0.52918535 0.080800615 -0.3867641
000200 f4 65 1e bf f6 d9 19 be 76 36 9b 3e 1a ae 97 3d
       -0.6187432 -0.15024552 0.30314988 0.07406254
000210 51 38 89 be 61 2c ae 3e 27 13 64 be 85 b0 8f 3e
       -0.26800779 0.34018233 -0.22272931 0.2806436
000220 30 a0 fa 3e 71 1d 70 3e 17 3d 13 bf 55 a7 2f 3e
       0.48950338 0.23448731 -0.5751509 0.17153676
000230 fc 52 f3 3e f6 47 7e 3e 29 0e a2 be de 9f 1c bd
       0.4752425 0.24832138 -0.31651428 -0.0382384
000240 6c 1a 10 3e be 11 e2 be 1c 17 67 3e e8 23 cc 3e
       0.14072579 -0.4415416 0.2256741 0.39871144
000250 da 6f 94 be 4d 75 e6 3d d5 f8 8b be e9 6c 22 be
       -0.28991586 0.11252842 -0.2733828 -0.15861858
000260 b9 6c a8 3e e0 0b 81 3e c1 ec ba 3e 95 cc df be
       0.3289545 0.25204372 0.36508754 -0.4371077
000270 ad 3d 7f be 71 ed 72 be c0 f1 0c 3e ce 46 87 3e
       -0.24925871 -0.23723389 0.13764095 0.26421207
000280 34 a4 55 be 0b 17 ff bc 69 bc 91 be 25 0d 57 3e
       -0.2086342 -0.031138917 -0.28464058 0.21001108
000290 fc d7 a5 bc 3e 59 92 3e 96 7d 9a 3e 38 b5 ca be
       -0.020244591 0.2858371 0.3017394 -0.39591384
0002a0 2a 15 31 3e 98 e7 2b be b9 48 8f 3e 7b 56 99 be
       0.1729323 -0.16787565 0.2798517 -0.29948792
0002b0 b3 6f 8e be 9e f1 ba 3d f7 34 5d be 1a dc cd 3d
       -0.27819595 0.09128116 -0.21602236 0.10051747
0002c0 58 ad be be db b8 da 3d da c7 27 bc 61 40 4f be
       -0.37241626 0.1067979 -0.010240519 -0.20239402
0002d0 c9 82 51 bd 9c c4 ab 3e 28 a3 77 3c 6c 95 89 be
       -0.051150117 0.3354844 0.015114583 -0.26871812
0002e0 61 a7 9c be eb c6 75 3e 08 8b 7a be 15 4f 7b 3e
       -0.3059645 0.24001662 -0.24467099 0.24541886
0002f0 b0 77 24 3e 9f a4 ce 3e bc a5 94 be 0b 88 91 be
       0.16061282 0.4035997 -0.29032695 -0.28424105
000300 36 eb 00 bf ae ae 2a bc eb 52 52 be 1a 5d f6 3d
       -0.50358903 -0.010417623 -0.20539443 0.120294765
000310 b0 57 cd be bd eb 1f bf ec 20 c6 bd a8 7c a3 3c
       -0.40105963 -0.62469083 -0.09674248 0.019956902
000320 ae 5e 2b 3e 5e 53 b6 be 97 f5 03 bf 13 40 d2 3e
       0.16735336 -0.3561048 -0.51546615 0.4106451
000330 2f fa 1d 3e 67 49 2c 3d 62 9e 54 be a9 f2 b6 be
       0.15427469 0.04206219 -0.20763543 -0.3573201
000340 4c d8 e0 be 87 27 e8 3e b7 b2 37 3d ab 8a cc 3e
       -0.4391502 0.45342657 0.04484817 0.39949545
000350 9d 70 11 3e d4 a3 39 3e 40 9e a4 3d 13 c3 4d bd
       0.14203115 0.18128902 0.08037996 -0.050234865
000360 c4 14 00 3d 5a ec d5 3e 29 cb cd 3e d4 36 92 3e
       0.031269804 0.41781884 0.4019406 0.28557456
000370 d4 44 09 bd 13 18 2a 3e 2e 70 32 3e fb 05 e3 bd
       -0.033512905 0.16610746 0.17425606 -0.11085125
000380 88 f8 02 be 65 99 af 3e 27 7b 8d 3d da 6e 13 be
       -0.1279012 0.34296718 0.06908255 -0.14397755
000390 0f 1d 89 3e 26 be cd 3e 9c c1 8a be 0e a8 a0 bd
       0.26779982 0.40184134 -0.27100837 -0.07844554
0003a0 78 e3 da bd 4f 9a c0 be a8 85 94 3d ca 27 2e be
       -0.106879175 -0.37617728 0.072520554 -0.17007366
0003b0 ac 00 a5 be be a8 6a be 7a 9e 8b 3e b0 4c da 3e
       -0.32227075 -0.22915933 0.27269346 0.42636633
0003c0 9a 7b 86 3e 98 fa 4d 3e ab 82 24 be 40 ca fe bd
       0.26266176 0.20115125 -0.16065471 -0.1244092
0003d0 57 3d 6d 3a f5 cb 40 be eb a0 c2 3e c3 84 cb 3e
       0.0009049973 -0.18827803 0.38013396 0.39749727
0003e0 6e e1 bb be af bb f2 3e 48 5b af 3e 7b 1c 95 be
       -0.36695427 0.47408816 0.3424933 -0.2912329
0003f0 00 62 39 be ab d5 5a 3e d8 d5 36 3d 29 4b 71 bd
       -0.1810379 0.2137057 0.04463753 -0.05890957

sequential/dense/BiasAdd/ReadVariableOp f4 [64]
000000 37 9f 69 bd 1f f2 da bb 2c 87 85 3d 5b b4 80 3c
       -0.057036605 -0.006681695 0.065199226 0.015711
000010 e2 72 ea bc 31 2a a4 3d 73 af aa 3b 0b 6d b3 bb
       -0.028619234 0.0801586 0.0052089035 -0.0054756454
000020 78 bb 92 3b f0 d2 75 3c 64 56 97 bd 15 91 48 3c
       0.0044779144 0.015003905 -0.073895246 0.0122416215
000030 6e 9d d5 3c 4f 96 e9 3b d0 ee 5f 3d 7d 82 75 3d
       0.026076045 0.007128514 0.05467111 0.059938896
000040 0c e0 28 bd 59 fe 3b 3c 90 2d 55 bc a6 a3 fc bc
       -0.041229293 0.011474215 -0.013011351 -0.030839752
000050 4d f8 fc 3d e6 4b ba bd ad 27 be 3b 06 84 e7 bc
       0.12352047 -0.09096508 0.0058030696 -0.028261196
000060 1d c8 9c bc 5a e6 fe bc 6b 2e 08 bd 10 bb 69 3c
       -0.01913839 -0.0311157 -0.033247393 0.014265791
000070 9f 97 93 3b 42 e8 36 3d 25 49 f0 bc fd 8b 0d 3c
       0.0045041586 0.044655092 -0.029331753 0.008639333
000080 09 c7 60 bd 13 4d 89 bd b0 6d 35 3d 39 18 cc bd
       -0.054877315 -0.06704154 0.04429406 -0.099655576
000090 77 4e 64 bc 3f a4 67 3c 82 e0 29 bd b0 60 07 be
       -0.013934723 0.01413828 -0.041473873 -0.13220477
0000a0 8c 90 82 bd d7 71 0d be 7e 19 80 bd 8f 7d 4a 3c
       -0.063752264 -0.13812958 -0.06254862 0.012359037
0000b0 c5 f6 8d bd c4 c9 10 3d 68 2d b5 bc e3 52 f0 ba
       -0.06931833 0.03534867 -0.022116378 -0.0018335249
0000c0 a3 b7 73 3c 5c fc bc bb 0f 48 96 3c ef 51 ee 3c
       0.014875325 -0.0057673883 0.018344907 0.029091803
0000d0 16 55 82 3d 90 20 a1 bd d6 77 ad 3c 97 53 f7 bc
       0.06363885 -0.07867539 0.021175306 -0.030191226
0000e0 81 5e 8d 3d 92 fd ca 3b 31 81 89 3d 4c 92 ac bc
       0.06902791 0.0061947787 0.067140944 -0.021065854
0000f0 e3 94 1a be 11 5c cb 3c 78 af b6 bc 7b 62 07 3b
       -0.15095858 0.024824174 -0.022300467 0.0020658064

sequential/dense/MatMul f4 [64, 13]
000000 4c 90 61 3d 17 f1 cc 3d 01 9e bb 3c c0 69 ed bc
       0.055069253 0.10006922 0.02290249 -0.02898109
000010 c0 6b 79 bd 5f f2 90 bd c4 dc 85 bd 8e 7f 00 3e
       -0.060893774 -0.070774786 -0.06536248 0.12548658
000020 79 ae 5c 3e 14 56 16 be 4d 25 85 bd 6b 8f dc 3c
       0.21550931 -0.14681274 -0.06501255 0.026923856
000030 b9 80 5e be 51 fb 75 be ea d3 8f 3d 58 f6 6d be
       -0.21728791 -0.24021651 0.07022841 -0.23238504
000040 6c 78 87 3e ae d5 48 bd f6 74 24 be 1f 4e 07 3d
       0.26459062 -0.049031906 -0.16060242 0.033033486
000050 21 29 82 3e 2d 63 44 3e 37 c8 59 be bf 85 a3 bd
       0.25422004 0.19178458 -0.21267782 -0.079844944
000060 78 e6 80 be a6 dd 3e be 85 cc 2f be cd f8 01 3d
       -0.25175834 -0.1863924 -0.17167862 0.031731416
000070 92 8b 04 3e 41 78 5c 3d 5a 7a 13 be 91 37 14 3d
       0.12943867 0.05382562 -0.14402142 0.036185805
000080 a1 68 48 3e 50 11 20 3e 8a 63 3b 3d fc fd ec 3d
       0.19571163 0.15631604 0.045749225 0.11571881
000090 1a f6 86 be 81 2a 2c bd 5c 88 04 be 20 de d7 3d
       -0.26359636 -0.042032722 -0.12942642 0.10540414
0000a0 6f e8 16 bd 28 f7 cb bd 01 48 c1 3c 25 d6 1b be
       -0.03684276 -0.09959251 0.023593904 -0.15218408
0000b0 bb 0b de 3d 6c d3 92 3e bc 04 28 3e 45 ff 27 be
       0.10842081 0.28676927 0.16408056 -0.16405971
0000c0 21 cc f4 3d 77 76 43 3d 27 f3 aa bd 6e 7b 44 be
       0.11952997 0.0477204 -0.08347159 -0.1918771
0000d0 6c bf 1b 3e 83 c6 e8 3d 81 87 18 be b4 67 05 3e
       0.1520974 0.11365988 -0.1489544 0.13027841
0000e0 2d 1f 02 3d 7d 65 54 3e b7 21 39 3e 52 b9 35 3e
       0.031768013 0.2074184 0.18079267 0.17746475
0000f0 c1 62 c4 3d f7 f4 f6 bc 1f 4c ad 3d e8 24 72 be
       0.09589148 -0.030146105 0.084617846 -0.23646891
000100 49 5a 75 be cd e1 4c 3e 0f 8e 4e 3e 68 98 ee bd
       -0.23960222 0.20008011 0.20171379 -0.11650163
000110 c4 59 d7 3d 46 74 d4 38 4a 33 ec 3d 98 fc 06 bc
       0.10515168 0.000101306054 0.1153322 -0.008238934
000120 6b 76 01 be 7e 5b 1d be b0 08 25 be 99 bb 38 be
       -0.12642829 -0.15366933 -0.16116595 -0.18040313
000130 f9 7b d1 bd e4 cf b7 bd 4a 16 f8 bc b2 bf 97 3e
       -0.10228724 -0.08975199 -0.030284066 0.2963844
000140 03 a4 8d 3d d9 7b 14 be d0 4e d8 bd 8f 84 ed 3d
       0.069160484 -0.14500369 -0.10561907 0.11597549
000150 32 0c b6 3c 89 2e 13 3e 8d 18 8d 3e e3 fd d5 3d
       0.022222612 0.1437322 0.27557793 0.10448816
000160 83 38 9c be 6b 83 70 3e cb ac 97 3d 71 1d 87 3e
       -0.30511865 0.23487632 0.074060045 0.2638965
000170 ed 10 1c 3e 12 2c 87 bd 23 57 dd 3d 82 d2 34 be
       0.15240832 -0.066002026 0.10807636 -0.17658427
000180 51 a1 47 bd 14 c2 a8 3c 67 30 6c 3d 4d bb e1 bd
       -0.048737828 0.020600356 0.057663348 -0.11022053
000190 ae dd 22 3e 5f a6 7c be f1 34 5a 3e 63 26 da bd
       0.15904877 -0.2467284 0.21309258 -0.10651853
0001a0 08 d9 3c be 3d 31 60 be cf b1 e0 bd c7 44 e5 3d
       -0.18442166 -0.21893783 -0.10971414 0.11194759
0001b0 84 f0 12 be 3e 5f 4a 3d 75 cd e5 3c db 87 b1 bd
       -0.14349562 0.049407236 0.028052071 -0.086684905
0001c0 bb 0f fa 3b bc 6d 4e be 70 74 2a bd 12 78 83 3e
       0.0076312697 -0.20159048 -0.04161495 0.25677544
0001d0 33 17 3a be fd ed 4b be 19 bc 06 be 35 78 c3 bd
       -0.18172912 -0.19915004 -0.13157691 -0.09544412
0001e0 f5 d3 2c 3c 41 39 9b 3d 4c e9 5a 3e 30 ed 91 a3
       0.010548581 0.0757928 0.21378058 -1.5821384e-17
0001f0 58 1e 68 3e 2a 93 1d 3e 5a 63 97 3d 49 0a 57 3d
       0.22667825 0.1538817 0.07391997 0.052500043
000200 2e b0 41 ba 25 e1 20 3e 64 43 2a bd 1b 77 72 3e
       -0.00073886185 0.15710886 -0.041568175 0.23678248
000210 c8 95 27 be 0d 42 80 3d 88 53 1b 3d 2d 43 94 3e
       -0.16365731 0.06262598 0.03792146 0.289575
000220 a8 82 c5 21 40 ec 62 be c7 44 46 3e 0e 4d 81 bd
       1.3383824e-18 -0.22160435 0.19362174 -0.06313525
000230 16 ab 62 bd 99 34 1e be 09 66 ea 3d 8b fe 9d 3d
       -0.05533894 -0.15449752 0.11445243 0.07714566
000240 95 56 d7 3d 48 ee c9 bc f3 2f 37 3e e5 37 8a 3d
       0.10514561 -0.024649754 0.17889385 0.06748942
000250 8e b4 8e 3c c7 22 1d bd 60 48 3a be f5 61 bf bd
       0.01742008 -0.038363244 -0.18191671 -0.09344856
000260 ea 49 e5 3d 8e ae 34 be b6 e9 50 3e f8 7a 0f 3e
       0.111957386 -0.17644712 0.20401654 0.14011753
000270 20 b3 b5 bb 62 7f 36 3e a5 ec 49 bd fd 1c b2 3d
       -0.005545035 0.1782203 -0.049297947 0.08696935
000280 2e 93 6a be 11 de 6e bd 3d 2a 58 bd 17 5c 20 3e
       -0.22907707 -0.058317248 -0.052774657 0.1566013
000290 a9 6e 82 be 4b 17 2d be 77 d6 1e be 85 6c 58 3e
       -0.25475052 -0.16903417 -0.155115 0.21135147
0002a0 4e e9 2d be 0b ea 5b be 5a c4 31 be e1 22 d2 bd
       -0.1698353 -0.21475999 -0.17360058 -0.10260559
0002b0 46 73 74 be 84 54 26 be 7e dd 68 bc ea a8 a9 3d
       -0.23872098 -0.16243178 -0.014212964 0.08284171
0002c0 7d 3c 9d 3d 3a a9 09 3e 00 69 12 be 83 e8 9a be
       0.07677553 0.13443461 -0.14297867 -0.30255517
0002d0 dd 95 92 be 5e 06 f2 3b cf 72 2b 3e fb 25 e1 bd
       -0.28629962 0.007386013 0.16743015 -0.10993572
0002e0 6c ec 3b be 64 1f 3b 3c dc dc ef 3d 65 bc 62 be
       -0.18351907 0.011421058 0.117120475 -0.2214218
0002f0 af 3b 63 3c ee 29 38 3e 08 36 29 3d 6f 0b b5 bd
       0.01386921 0.17984745 0.041311294 -0.088400714
000300 f3 58 48 3e d6 df 41 be c2 6c 37 3d 5d 0a 2a bc
       0.19565181 -0.18933043 0.044781454 -0.010378447
000310 88 2f 79 3d 44 0b 2d 3e 2b 33 c5 bc 8d 2d 24 3b
       0.060836345 0.16898829 -0.02407225 0.0025051564
000320 4a cd d7 bd a5 09 a9 bd 75 7d 56 3b bf 6c 65 3e
       -0.10537203 -0.08253793 0.0032728587 0.22404765
000330 3f 12 41 be 88 fd 5c 3e f2 20 90 3b 57 9b 2c 3e
       -0.18854617 0.2158109 0.0043984586 0.16856132
000340 95 d2 10 3e 02 f0 6d 3e 9e 5d 4a be 25 ee 80 be
       0.1414283 0.23236087 -0.19762275 -0.2518169
000350 6b dd 54 be ed 2b 2c be ec 32 0b be bc ae 0c 3e
       -0.20787589 -0.16813631 -0.13593644 0.13738531
000360 56 48 24 3e c2 80 8c be c7 20 33 bd 33 b8 23 be
       0.16043219 -0.27441984 -0.04373243 -0.15988235
000370 91 e6 7a be c5 74 6c bd b2 e5 d9 3d 66 3f 24 3e
       -0.24502017 -0.057728548 0.10639514 0.1603981
000380 a6 70 81 bc e3 94 8c 3e 0e fe a7 bd b1 23 ea 3d
       -0.015800785 0.27457342 -0.08202754 0.11432589
000390 a6 23 23 be a1 c3 22 be c6 37 e7 bd 1a c4 c6 3d
       -0.15931568 -0.15894939 -0.11289935 0.09705372
0003a0 ea 1e 66 be 97 74 a5 bd c2 04 10 be e8 fc 37 bd
       -0.2247273 -0.080788784 -0.14064315 -0.044918925
0003b0 40 5d 3c 3e dc 31 98 bd 75 ca 93 bc 49 63 85 be
       0.18394947 -0.07431385 -0.018040875 -0.2605231
0003c0 b7 24 2e a8 37 36 14 bd a2 00 25 3e b8 b6 38 3e
       -9.666902e-15 -0.036184516 0.16113523 0.18038452
0003d0 db 09 75 bd eb ed c9 bd a4 bd f8 3d d4 db 79 3e
       -0.059823852 -0.098598324 0.12145546 0.24400264
0003e0 0b 55 c5 3d 8f 5d cf 3d 42 74 1e 3e e1 e5 3b 3d
       0.09635361 0.10125267 0.15474036 0.045873526
0003f0 36 c6 90 bd 5e 3b 1b 3e 32 0f 9b 3c 7b 45 4b 3e
       -0.07069056 0.15159366 0.018928144 0.19850723

sequential/dense_3/MatMul f4 [1, 16]
000000 af 9c 3f bf 01 87 02 3e ea 18 74 3e cf 53 c0 3e
       -0.74848455 0.12746812 0.23837629 0.3756394
000010 bf b1 a6 be 03 61 c7 3e e2 11 28 be 27 e8 16 3e
       -0.32557485 0.38941202 -0.16413072 0.14736997
000020 8d 7f bb 3e 9b e9 27 3f 6a 01 aa 3e 5c 76 d8 be
       0.3662075 0.6559083 0.33204204 -0.422778
000030 e3 d7 15 bf 3e de a2 3e f2 b8 b1 3e 0b 2b cf be
       -0.5853254 0.31810182 0.34711415 -0.40462527
